…
"photoUrl":"","userId":"06178577271257099861"}},"outputId":"77b4606d-323d-49b2-9de9-32e83f490484"},"source":["# fine tuning\n","if PRETRAINED:\n","    net = inception_v3(pretrained=PRETRAINED)\n","    for param in net.parameters():\n","        param.requires_grad = False\n","    net.fc = torch.nn.Linear(2048, 2)\n","else:\n","    net = inception_v3(pretrained=PRETRAINED, num_classes=len(classes))\n","final_conv = 'Mixed_7c'\n","\n","net.cuda()"],"execution_count":null,"outputs":[{"output_type":"execute_result","data":{"text/plain":["Inception3(\n","  (Conv2d_1a_3x3): BasicConv2d(\n","    (conv): Conv2d(3, 32, kernel_size=(3, 3), stride=(2, 2), bias=False)\n","    (bn): BatchNorm2d(32, eps=0.001, momentum=0.1, affine=True, track_running_stats=True)\n","  )\n","  (Conv2d_2a_3x3): BasicConv2d(\n","    (conv): Conv2d(32, 32, kernel_size=(3, 3), stride=(1, 1), bias=False)\n","    (bn): BatchNorm2d(32, eps=0.001, momentum=0.1, affine=True, track_running_stats=True)\n","  )\n","  (Conv2d_2b_3x3): BasicConv2d(\n","    (conv): Conv2d(32, 64, kernel_size=(3, 3), stride=(1, 1), padding=(1, 1), bias=False)\n","    (bn): BatchNorm2d(64, eps=0.001, momentum=0.1, affine=True, track_running_stats=True)\n","  )\n","  (Conv2d_3b_1x1): BasicConv2d(\n","    (conv): Conv2d(64, 80, kernel_size=(1, 1), stride=(1, 1), bias=False)\n","    (bn): BatchNorm2d(80, eps=0.001, momentum=0.1, affine=True, track_running_stats=True)\n","  )\n","  (Conv2d_4a_3x3): BasicConv2d(\n","    (conv): Conv2d(80, 192, kernel_size=(3, 3), stride=(1, 1), bias=False)\n","    (bn): BatchNorm2d(192, eps=0.001, momentum=0.1, affine=True, track_running_stats=True)\n","  )\n","  (Mixed_5b): InceptionA(\n","    (branch1x1): BasicConv2d(\n","      (conv): Conv2d(192, 64, kernel_size=(1, 1), stride=(1, 1), bias=False)\n","      (bn): BatchNorm2d(64, eps=0.001, momentum=0.1, affine=True, track_running_stats=True)\n","    )\n","    (branch5x5_1): BasicConv2d(\n","      (conv): Conv2d(192, 48, kernel_size=(1, 1), stride=(1, 1), bias=False)\n","      (bn): BatchNorm2d(48, eps=0.001, momentum=0.1, affine=True, track_running_stats=True)\n","    )\n","    (branch5x5_2): BasicConv2d(\n","      (conv): Conv2d(48, 64, kernel_size=(5, 5), stride=(1, 1), padding=(2, 2), bias=False)\n","      (bn): BatchNorm2d(64, eps=0.001, momentum=0.1, affine=True, track_running_stats=True)\n","    )\n","    (branch3x3dbl_1): BasicConv2d(\n","      (conv): Conv2d(192, 64, kernel_size=(1, 1), stride=(1, 1), bias=False)\n","      (bn): BatchNorm2d(64, eps=0.001, momentum=0.1, affine=True, track_running_stats=True)\n","    )\n","    (branch3x3dbl_2): BasicConv2d(\n","      (conv): Conv2d(64, 96, kernel_size=(3, 3), stride=(1, 1), padding=(1, 1), bias=False)\n","      (bn): BatchNorm2d(96, eps=0.001, momentum=0.1, affine=True, track_running_stats=True)\n","    )\n","    (branch3x3dbl_3): BasicConv2d(\n","      (conv): Conv2d(96, 96, kernel_size=(3, 3), stride=(1, 1), padding=(1, 1), bias=False)\n","      (bn): BatchNorm2d(96, eps=0.001, momentum=0.1, affine=True, track_running_stats=True)\n","    )\n","    (branch_pool): BasicConv2d(\n","      (conv): Conv2d(192, 32, kernel_size=(1, 1), stride=(1, 1), bias=False)\n","      (bn): BatchNorm2d(32, eps=0.001, momentum=0.1, affine=True, track_running_stats=True)\n","    )\n","  )\n","  (Mixed_5c): InceptionA(\n","    (branch1x1): BasicConv2d(\n","      (conv): Conv2d(256, 64, kernel_size=(1, 1), stride=(1, 1), bias=False)\n","      (bn): BatchNorm2d(64, eps=0.001, momentum=0.1, affine=True, track_running_stats=True)\n","    )\n","    (branch5x5_1): BasicConv2d(\n","      (conv): Conv2d(256, 48, kernel_size=(1, 1), stride=(1, 1), bias=False)\n","      (bn): BatchNorm2d(48, eps=0.001, momentum=0.1, affine=True, track_running_stats=True)\n","    )\n","    (branch5x5_2): BasicConv2d(\n","      (conv): Conv2d(48, 64, kernel_size=(5, 5), stride=(1, 1), padding=(2, 2), bias=False)\n","      (bn): BatchNorm2d(64, eps=0.001, momentum=0.1, affine=True, track_running_stats=True)\n","    )\n","    (branch3x3dbl_1): BasicConv2d(\n","      (conv): Conv2d(256, 64, kernel_size=(1, 1), stride=(1, 1), bias=False)\n","      (bn): BatchNorm2d(64, eps=0.001, momentum=0.1, affine=True, track_running_stats=True)\n","    )\n","    (branch3x3dbl_2): BasicConv2d(\n","      (conv): Conv2d(64, 96, kernel_size=(3, 3), stride=(1, 1), padding=(1, 1), bias=False)\n","      (bn): BatchNorm2d(96, eps=0.001, momentum=0.1, affine=True, track_running_stats=True)\n","    )\n","    (branch3x3dbl_3): BasicConv2d(\n","      (conv): Conv2d(96, 96, kernel_size=(3, 3), stride=(1, 1), padding=(1, 1), bias=False)\n","      (bn): BatchNorm2d(96, eps=0.001, momentum=0.1, affine=True, track_running_stats=True)\n","    )\n","    (branch_pool): BasicConv2d(\n","      (conv): Conv2d(256, 64, kernel_size=(1, 1), stride=(1, 1), bias=False)\n","      (bn): BatchNorm2d(64, eps=0.001, momentum=0.1, affine=True, track_running_stats=True)\n","    )\n","  )\n","  (Mixed_5d): InceptionA(\n","    (branch1x1): BasicConv2d(\n","      (conv): Conv2d(288, 64, kernel_size=(1, 1), stride=(1, 1), bias=False)\n","      (bn): BatchNorm2d(64, eps=0.001, momentum=0.1, affine=True, track_running_stats=True)\n","    )\n","    (branch5x5_1): BasicConv2d(\n","      (conv): Conv2d(288, 48, kernel_size=(1, 1), stride=(1, 1), bias=False)\n","      (bn): BatchNorm2d(48, eps=0.001, momentum=0.1, affine=True, track_running_stats=True)\n","    )\n","    (branch5x5_2): BasicConv2d(\n","      (conv): Conv2d(48, 64, kernel_size=(5, 5), stride=(1, 1), padding=(2, 2), bias=False)\n","      (bn): BatchNorm2d(64, eps=0.001, momentum=0.1, affine=True, track_running_stats=True)\n","    )\n","    (branch3x3dbl_1): BasicConv2d(\n","      (conv): Conv2d(288, 64, kernel_size=(1, 1), stride=(1, 1), bias=False)\n","      (bn): BatchNorm2d(64, eps=0.001, momentum=0.1, affine=True, track_running_stats=True)\n","    )\n","    (branch3x3dbl_2): BasicConv2d(\n","      (conv): Conv2d(64, 96, kernel_size=(3, 3), stride=(1, 1), padding=(1, 1), bias=False)\n","      (bn): BatchNorm2d(96, eps=0.001, momentum=0.1, affine=True, track_running_stats=True)\n","    )\n","    (branch3x3dbl_3): BasicConv2d(\n","      (conv): Conv2d(96, 96, kernel_size=(3, 3), stride=(1, 1), padding=(1, 1), bias=False)\n","      (bn): BatchNorm2d(96, eps=0.001, momentum=0.1, affine=True, track_running_stats=True)\n","    )\n","    (branch_pool): BasicConv2d(\n","      (conv): Conv2d(288, 64, kernel_size=(1, 1), stride=(1, 1), bias=False)\n","      (bn): BatchNorm2d(64, eps=0.001, momentum=0.1, affine=True, track_running_stats=True)\n","    )\n","  )\n","  (Mixed_6a): InceptionB(\n","    (branch3x3): BasicConv2d(\n","      (conv): Conv2d(288, 384, kernel_size=(3, 3), stride=(2, 2), bias=False)\n","      (bn): BatchNorm2d(384, eps=0.001, momentum=0.1, affine=True, track_running_stats=True)\n","    )\n","    (branch3x3dbl_1): BasicConv2d(\n","      (conv): Conv2d(288, 64, kernel_size=(1, 1), stride=(1, 1), bias=False)\n","      (bn): BatchNorm2d(64, eps=0.001, momentum=0.1, affine=True, track_running_stats=True)\n","    )\n","    (branch3x3dbl_2): BasicConv2d(\n","      (conv): Conv2d(64, 96, kernel_size=(3, 3), stride=(1, 1), padding=(1, 1), bias=False)\n","      (bn): BatchNorm2d(96, eps=0.001, momentum=0.1, affine=True, track_running_stats=True)\n","    )\n","    (branch3x3dbl_3): BasicConv2d(\n","      (conv): Conv2d(96, 96, kernel_size=(3, 3), stride=(2, 2), bias=False)\n","      (bn): BatchNorm2d(96, eps=0.001, momentum=0.1, affine=True, track_running_stats=True)\n","    )\n","  )\n","  (Mixed_6b): InceptionC(\n","    (branch1x1): BasicConv2d(\n","      (conv): Conv2d(768, 192, kernel_size=(1, 1), stride=(1, 1), bias=False)\n","      (bn): BatchNorm2d(192, eps=0.001, momentum=0.1, affine=True, track_running_stats=True)\n","    )\n","    (branch7x7_1): BasicConv2d(\n","      (conv): Conv2d(768, 128, kernel_size=(1, 1), stride=(1, 1), bias=False)\n","      (bn): BatchNorm2d(128, eps=0.001, momentum=0.1, affine=True, track_running_stats=True)\n","    )\n","    (branch7x7_2): BasicConv2d(\n","      (conv): Conv2d(128, 128, kernel_size=(1, 7), stride=(1, 1), padding=(0, 3), bias=False)\n","      (bn): BatchNorm2d(128, eps=0.001, momentum=0.1, affine=True, track_running_stats=True)\n","    )\n","    (branch7x7_3): BasicConv2d(\n","      (conv): Conv2d(128, 192, kernel_size=(7, 1), stride=(1, 1), padding=(3, 0), bias=False)\n","      (bn): BatchNorm2d(192, eps=0.001, momentum=0.1, affine=True, track_running_stats=True)\n","    )\n","    (branch7x7dbl_1): BasicConv2d(\n","      (conv): Conv2d(768, 128, kernel_size=(1, 1), stride=(1, 1), bias=False)\n","      (bn): BatchNorm2d(128, eps=0.001, momentum=0.1, affine=True, track_running_stats=True)\n","    )\n","    (branch7x7dbl_2): BasicConv2d(\n","      (conv): Conv2d(128, 128, kernel_size=(7, 1), stride=(1, 1), padding=(3, 0), bias=False)\n","      (bn): BatchNorm2d(128, eps=0.001, momentum=0.1, affine=True, track_running_stats=True)\n","    )\n","    (branch7x7dbl_3): BasicConv2d(\n","      (conv): Conv2d(128, 128, kernel_size=(1, 7), stride=(1, 1), padding=(0, 3), bias=False)\n","      (bn): BatchNorm2d(128, eps=0.001, momentum=0.1, affine=True, track_running_stats=True)\n","    )\n","    (branch7x7dbl_4): BasicConv2d(\n","      (conv): Conv2d(128, 128, kernel_size=(7, 1), stride=(1, 1), padding=(3, 0), bias=False)\n","      (bn): BatchNorm2d(128, eps=0.001, momentum=0.1, affine=True, track_running_stats=True)\n","    )\n","    (branch7x7dbl_5): BasicConv2d(\n","      (conv): Conv2d(128, 192, kernel_size=(1, 7), stride=(1, 1), padding=(0, 3), bias=False)\n","      (bn): BatchNorm2d(192, eps=0.001, momentum=0.1, affine=True, track_running_stats=True)\n","    )\n","    (branch_pool): BasicConv2d(\n","      (conv): Conv2d(768, 192, kernel_size=(1, 1), stride=(1, 1), bias=False)\n","      (bn): BatchNorm2d(192, eps=0.001, momentum=0.1, affine=True, track_running_stats=True)\n","    )\n","  )\n","  (Mixed_6c): InceptionC(\n","    (branch1x1): BasicConv2d(\n","      (conv): Conv2d(768, 192, kernel_size=(1, 1), stride=(1, 1), bias=False)\n","      (bn): BatchNorm2d(192, eps=0.001, momentum=0.1, affine=True, track_running_stats=True)\n","    )\n","    (branch7x7_1): BasicConv2d(\n","      (conv): Conv2d(768, 160, kernel_size=(1, 1), stride=(1, 1), bias=False)\n","      (bn): BatchNorm2d(160, eps=0.001, momentum=0.1, affine=True, track_running_stats=True)\n","    )\n","    (branch7x7_2): BasicConv2d(\n","      (conv): Conv2d(160, 160, kernel_size=(1, 7), stride=(1, 1), padding=(0, 3), bias=False)\n","      (bn): BatchNorm2d(160, eps=0.001, momentum=0.1, affine=True, track_running_stats=True)\n","    )\n","    (branch7x7_3): BasicConv2d(\n","      (conv): Conv2d(160, 192, kernel_size=(7, 1), stride=(1, 1), padding=(3, 0), bias=False)\n","      (bn): BatchNorm2d(192, eps=0.001, momentum=0.1, affine=True, track_running_stats=True)\n","    )\n","    (branch7x7dbl_1): BasicConv2d(\n","      (conv): Conv2d(768, 160, kernel_size=(1, 1), stride=(1, 1), bias=False)\n","      (bn): BatchNorm2d(160, eps=0.001, momentum=0.1, affine=True, track_running_stats=True)\n","    )\n","    (branch7x7dbl_2): BasicConv2d(\n","      (conv): Conv2d(160, 160, kernel_size=(7, 1), stride=(1, 1), padding=(3, 0), bias=False)\n","      (bn): BatchNorm2d(160, eps=0.001, momentum=0.1, affine=True, track_running_stats=True)\n","    )\n","    (branch7x7dbl_3): BasicConv2d(\n","      (conv): Conv2d(160, 160, kernel_size=(1, 7), stride=(1, 1), padding=(0, 3), bias=False)\n","      (bn): BatchNorm2d(160, eps=0.001, momentum=0.1, affine=True, track_running_stats=True)\n","    )\n","    (branch7x7dbl_4): BasicConv2d(\n","      (conv): Conv2d(160, 160, kernel_size=(7, 1), stride=(1, 1), padding=(3, 0), bias=False)\n","      (bn): BatchNorm2d(160, eps=0.001, momentum=0.1, affine=True, track_running_stats=True)\n","    )\n","    (branch7x7dbl_5): BasicConv2d(\n","      (conv): Conv2d(160, 192, kernel_size=(1, 7), stride=(1, 1), padding=(0, 3), bias=False)\n","      (bn): BatchNorm2d(192, eps=0.001, momentum=0.1, affine=True, track_running_stats=True)\n","    )\n","    (branch_pool): BasicConv2d(\n","      (conv): Conv2d(768, 192, kernel_size=(1, 1), stride=(1, 1), bias=False)\n","      (bn): BatchNorm2d(192, eps=0.001, momentum=0.1, affine=True, track_running_stats=True)\n","    )\n","  )\n","  (Mixed_6d): InceptionC(\n","    (branch1x1): BasicConv2d(\n","      (conv): Conv2d(768, 192, kernel_size=(1, 1), stride=(1, 1), bias=False)\n","      (bn): BatchNorm2d(192, eps=0.001, momentum=0.1, affine=True, track_running_stats=True)\n","    )\n","    (branch7x7_1): BasicConv2d(\n","      (conv): Conv2d(768, 160, kernel_size=(1, 1), stride=(1, 1), bias=False)\n","      (bn): BatchNorm2d(160, eps=0.001, momentum=0.1, affine=True, track_running_stats=True)\n","    )\n","    (branch7x7_2): BasicConv2d(\n","      (conv): Conv2d(160, 160, kernel_size=(1, 7), stride=(1, 1), padding=(0, 3), bias=False)\n","      (bn): BatchNorm2d(160, eps=0.001, momentum=0.1, affine=True, track_running_stats=True)\n","    )\n","    (branch7x7_3): BasicConv2d(\n","      (conv): Conv2d(160, 192, kernel_size=(7, 1), stride=(1, 1), padding=(3, 0), bias=False)\n","      (bn): BatchNorm2d(192, eps=0.001, momentum=0.1, affine=True, track_running_stats=True)\n","    )\n","    (branch7x7dbl_1): BasicConv2d(\n","      (conv): Conv2d(768, 160, kernel_size=(1, 1), stride=(1, 1), bias=False)\n","      (bn): BatchNorm2d(160, eps=0.001, momentum=0.1, affine=True, track_running_stats=True)\n","    )\n","    (branch7x7dbl_2): BasicConv2d(\n","      (conv): Conv2d(160, 160, kernel_size=(7, 1), stride=(1, 1), padding=(3, 0), bias=False)\n","      (bn): BatchNorm2d(160, eps=0.001, momentum=0.1, affine=True, track_running_stats=True)\n","    )\n","    (branch7x7dbl_3): BasicConv2d(\n","      (conv): Conv2d(160, 160, kernel_size=(1, 7), stride=(1, 1), padding=(0, 3), bias=False)\n","      (bn): BatchNorm2d(160, eps=0.001, momentum=0.1, affine=True, track_running_stats=True)\n","    )\n","    (branch7x7dbl_4): BasicConv2d(\n","      (conv): Conv2d(160, 160, kernel_size=(7, 1), stride=(1, 1), padding=(3, 0), bias=False)\n","      (bn): BatchNorm2d(160, eps=0.001, momentum=0.1, affine=True, track_running_stats=True)\n","    )\n","    (branch7x7dbl_5): BasicConv2d(\n","      (conv): Conv2d(160, 192, kernel_size=(1, 7), stride=(1, 1), padding=(0, 3), bias=False)\n","      (bn): BatchNorm2d(192, eps=0.001, momentum=0.1, affine=True, track_running_stats=True)\n","    )\n","    (branch_pool): BasicConv2d(\n","      (conv): Conv2d(768, 192, kernel_size=(1, 1), stride=(1, 1), bias=False)\n","      (bn): BatchNorm2d(192, eps=0.001, momentum=0.1, affine=True, track_running_stats=True)\n","    )\n","  )\n","  (Mixed_6e): InceptionC(\n","    (branch1x1): BasicConv2d(\n","      (conv): Conv2d(768, 192, kernel_size=(1, 1), stride=(1, 1), bias=False)\n","      (bn): BatchNorm2d(192, eps=0.001, momentum=0.1, affine=True, track_running_stats=True)\n","    )\n","    (branch7x7_1): BasicConv2d(\n","      (conv): Conv2d(768, 192, kernel_size=(1, 1), stride=(1, 1), bias=False)\n","      (bn): BatchNorm2d(192, eps=0.001, momentum=0.1, affine=True, track_running_stats=True)\n","    )\n","    (branch7x7_2): BasicConv2d(\n","      (conv): Conv2d(192, 192, kernel_size=(1, 7), stride=(1, 1), padding=(0, 3), bias=False)\n","      (bn): BatchNorm2d(192, eps=0.001, momentum=0.1, affine=True, track_running_stats=True)\n","    )\n","    (branch7x7_3): BasicConv2d(\n","      (conv): Conv2d(192, 192, kernel_size=(7, 1), stride=(1, 1), padding=(3, 0), bias=False)\n","      (bn): BatchNorm2d(192, eps=0.001, momentum=0.1, affine=True, track_running_stats=True)\n","    )\n","    (branch7x7dbl_1): BasicConv2d(\n","      (conv): Conv2d(768, 192, kernel_size=(1, 1), stride=(1, 1), bias=False)\n","      (bn): BatchNorm2d(192, eps=0.001, momentum=0.1, affine=True, track_running_stats=True)\n","    )\n","    (branch7x7dbl_2): BasicConv2d(\n","      (conv): Conv2d(192, 192, kernel_size=(7, 1), stride=(1, 1), padding=(3, 0), bias=False)\n","      (bn): BatchNorm2d(192, eps=0.001, momentum=0.1, affine=True, track_running_stats=True)\n","    )\n","    (branch7x7dbl_3): BasicConv2d(\n","      (conv): Conv2d(192, 192, kernel_size=(1, 7), stride=(1, 1), padding=(0, 3), bias=False)\n","      (bn): BatchNorm2d(192, eps=0.001, momentum=0.1, affine=True, track_running_stats=True)\n","    )\n","    (branch7x7dbl_4): BasicConv2d(\n","      (conv): Conv2d(192, 192, kernel_size=(7, 1), stride=(1, 1), padding=(3, 0), bias=False)\n","      (bn): BatchNorm2d(192, eps=0.001, momentum=0.1, affine=True, track_running_stats=True)\n","    )\n","    (branch7x7dbl_5): BasicConv2d(\n","      (conv): Conv2d(192, 192, kernel_size=(1, 7), stride=(1, 1), padding=(0, 3), bias=False)\n","      (bn): BatchNorm2d(192, eps=0.001, momentum=0.1, affine=True, track_running_stats=True)\n","    )\n","    (branch_pool): BasicConv2d(\n","      (conv): Conv2d(768, 192, kernel_size=(1, 1), stride=(1, 1), bias=False)\n","      (bn): BatchNorm2d(192, eps=0.001, momentum=0.1, affine=True, track_running_stats=True)\n","    )\n","  )\n","  (AuxLogits): InceptionAux(\n","    (conv0): BasicConv2d(\n","      (conv): Conv2d(768, 128, kernel_size=(1, 1), stride=(1, 1), bias=False)\n","      (bn): BatchNorm2d(128, eps=0.001, momentum=0.1, affine=True, track_running_stats=True)\n","    )\n","    (conv1): BasicConv2d(\n","      (conv): Conv2d(128, 768, kernel_size=(5, 5), stride=(1, 1), bias=False)\n","      (bn): BatchNorm2d(768, eps=0.001, momentum=0.1, affine=True, track_running_stats=True)\n","    )\n","    (fc): Linear(in_features=768, out_features=1000, bias=True)\n","  )\n","  (Mixed_7a): InceptionD(\n","    (branch3x3_1): BasicConv2d(\n","      (conv): Conv2d(768, 192, kernel_size=(1, 1), stride=(1, 1), bias=False)\n","      (bn): BatchNorm2d(192, eps=0.001, momentum=0.1, affine=True, track_running_stats=True)\n","    )\n","    (branch3x3_2): BasicConv2d(\n","      (conv): Conv2d(192, 320, kernel_size=(3, 3), stride=(2, 2), bias=False)\n","      (bn): BatchNorm2d(320, eps=0.001, momentum=0.1, affine=True, track_running_stats=True)\n","    )\n","    (branch7x7x3_1): BasicConv2d(\n","      (conv): Conv2d(768, 192, kernel_size=(1, 1), stride=(1, 1), bias=False)\n","      (bn): BatchNorm2d(192, eps=0.001, momentum=0.1, affine=True, track_running_stats=True)\n","    )\n","    (branch7x7x3_2): BasicConv2d(\n","      (conv): Conv2d(192, 192, kernel_size=(1, 7), stride=(1, 1), padding=(0, 3), bias=False)\n","      (bn): BatchNorm2d(192, eps=0.001, momentum=0.1, affine=True, track_running_stats=True)\n","    )\n","    (branch7x7x3_3): BasicConv2d(\n","      (conv): Conv2d(192, 192, kernel_size=(7, 1), stride=(1, 1), padding=(3, 0), bias=False)\n","      (bn): BatchNorm2d(192, eps=0.001, momentum=0.1, affine=True, track_running_stats=True)\n","    )\n","    (branch7x7x3_4): BasicConv2d(\n","      (conv): Conv2d(192, 192, kernel_size=(3, 3), stride=(2, 2), bias=False)\n","      (bn): BatchNorm2d(192, eps=0.001, momentum=0.1, affine=True, track_running_stats=True)\n","    )\n","  )\n","  (Mixed_7b): InceptionE(\n","    (branch1x1): BasicConv2d(\n","      (conv): Conv2d(1280, 320, kernel_size=(1, 1), stride=(1, 1), bias=False)\n","      (bn): BatchNorm2d(320, eps=0.001, momentum=0.1, affine=True, track_running_stats=True)\n","    )\n","    (branch3x3_1): BasicConv2d(\n","      (conv): Conv2d(1280, 384, kernel_size=(1, 1), stride=(1, 1), bias=False)\n","      (bn): BatchNorm2d(384, eps=0.001, momentum=0.1, affine=True, track_running_stats=True)\n","    )\n","    (branch3x3_2a): BasicConv2d(\n","      (conv): Conv2d(384, 384, kernel_size=(1, 3), stride=(1, 1), padding=(0, 1), bias=False)\n","      (bn): BatchNorm2d(384, eps=0.001, momentum=0.1, affine=True, track_running_stats=True)\n","    )\n","    (branch3x3_2b): BasicConv2d(\n","      (conv): Conv2d(384, 384, kernel_size=(3, 1), stride=(1, 1), padding=(1, 0), bias=False)\n","      (bn): BatchNorm2d(384, eps=0.001, momentum=0.1, affine=True, track_running_stats=True)\n","    )\n","    (branch3x3dbl_1): BasicConv2d(\n","      (conv): Conv2d(1280, 448, kernel_size=(1, 1), stride=(1, 1), bias=False)\n","      (bn): BatchNorm2d(448, eps=0.001, momentum=0.1, affine=True, track_running_stats=True)\n","    )\n","    (branch3x3dbl_2): BasicConv2d(\n","      (conv): Conv2d(448, 384, kernel_size=(3, 3), stride=(1, 1), padding=(1, 1), bias=False)\n","      (bn): BatchNorm2d(384, eps=0.001, momentum=0.1, affine=True, track_running_stats=True)\n","    )\n","    (branch3x3dbl_3a): BasicConv2d(\n","      (conv): Conv2d(384, 384, kernel_size=(1, 3), stride=(1, 1), padding=(0, 1), bias=False)\n","      (bn): BatchNorm2d(384, eps=0.001, momentum=0.1, affine=True, track_running_stats=True)\n","    )\n","    (branch3x3dbl_3b): BasicConv2d(\n","      (conv): Conv2d(384, 384, kernel_size=(3, 1), stride=(1, 1), padding=(1, 0), bias=False)\n","      (bn): BatchNorm2d(384, eps=0.001, momentum=0.1, affine=True, track_running_stats=True)\n","    )\n","    (branch_pool): BasicConv2d(\n","      (conv): Conv2d(1280, 192, kernel_size=(1, 1), stride=(1, 1), bias=False)\n","      (bn): BatchNorm2d(192, eps=0.001, momentum=0.1, affine=True, track_running_stats=True)\n","    )\n","  )\n","  (Mixed_7c): InceptionE(\n","    (branch1x1): BasicConv2d(\n","      (conv): Conv2d(2048, 320, kernel_size=(1, 1), stride=(1, 1), bias=False)\n","      (bn): BatchNorm2d(320, eps=0.001, momentum=0.1, affine=True, track_running_stats=True)\n","    )\n","    (branch3x3_1): BasicConv2d(\n","      (conv): Conv2d(2048, 384, kernel_size=(1, 1), stride=(1, 1), bias=False)\n","      (bn): BatchNorm2d(384, eps=0.001, momentum=0.1, affine=True, track_running_stats=True)\n","    )\n","    (branch3x3_2a): BasicConv2d(\n","      (conv): Conv2d(384, 384, kernel_size=(1, 3), stride=(1, 1), padding=(0, 1), bias=False)\n","      (bn): BatchNorm2d(384, eps=0.001, momentum=0.1, affine=True, track_running_stats=True)\n","    )\n","    (branch3x3_2b): BasicConv2d(\n","      (conv): Conv2d(384, 384, kernel_size=(3, 1), stride=(1, 1), padding=(1, 0), bias=False)\n","      (bn): BatchNorm2d(384, eps=0.001, momentum=0.1, affine=True, track_running_stats=True)\n","    )\n","    (branch3x3dbl_1): BasicConv2d(\n","      (conv): Conv2d(2048, 448, kernel_size=(1, 1), stride=(1, 1), bias=False)\n","      (bn): BatchNorm2d(448, eps=0.001, momentum=0.1, affine=True, track_running_stats=True)\n","    )\n","    (branch3x3dbl_2): BasicConv2d(\n","      (conv): Conv2d(448, 384, kernel_size=(3, 3), stride=(1, 1), padding=(1, 1), bias=False)\n","      (bn): BatchNorm2d(384, eps=0.001, momentum=0.1, affine=True, track_running_stats=True)\n","    )\n","    (branch3x3dbl_3a): BasicConv2d(\n","      (conv): Conv2d(384, 384, kernel_size=(1, 3), stride=(1, 1), padding=(0, 1), bias=False)\n","      (bn): BatchNorm2d(384, eps=0.001, momentum=0.1, affine=True, track_running_stats=True)\n","    )\n","    (branch3x3dbl_3b): BasicConv2d(\n","      (conv): Conv2d(384, 384, kernel_size=(3, 1), stride=(1, 1), padding=(1, 0), bias=False)\n","      (bn): BatchNorm2d(384, eps=0.001, momentum=0.1, affine=True, track_running_stats=True)\n","    )\n","    (branch_pool): BasicConv2d(\n","      (conv): Conv2d(2048, 192, kernel_size=(1, 1), stride=(1, 1), bias=False)\n","      (bn): BatchNorm2d(192, eps=0.001, momentum=0.1, affine=True, track_running_stats=True)\n","    )\n","  )\n","  (fc): Linear(in_features=2048, out_features=2, bias=True)\n",")"]},"metadata":{"tags":[]},"execution_count":9}]},{"cell_type":"markdown","metadata":{"id":"Bmsv7_joinVc"},"source":["It is possible to restart the training from a desired point as shown below, simply modify RESUME and define from which point you want to resume, the checkpoints are stored in a text file that generates the algorithm."]},{"cell_type"
…
